Model: "sequential_3"
_________________________________________________________________
 Layer (type)                Output Shape              Param #   
=================================================================
 normalization_3 (Normalizat  (None, 63)               127       
 ion)                                                            
                                                                 
 dense_9 (Dense)             (None, 64)                4096      
                                                                 
 dropout_6 (Dropout)         (None, 64)                0         
                                                                 
 dense_10 (Dense)            (None, 128)               8320      
                                                                 
 dropout_7 (Dropout)         (None, 128)               0         
                                                                 
 dense_11 (Dense)            (None, 1)                 129       
                                                                 
=================================================================
Total params: 12,672
Trainable params: 12,545
Non-trainable params: 127
_________________________________________________________________


features_txt: all_features_z_mass.txt 
fields_list: ['W01', 'W02'] 
z_filtered: False 
min_n500: None 
max_n500: None 
min_z: None 
…
