Model: "sequential_2"
_________________________________________________________________
 Layer (type)                Output Shape              Param #   
=================================================================
 normalization_2 (Normalizat  (None, 63)               127       
 ion)                                                            
                                                                 
 dense_6 (Dense)             (None, 64)                4096      
                                                                 
 dropout_4 (Dropout)         (None, 64)                0         
                                                                 
 dense_7 (Dense)             (None, 128)               8320      
                                                                 
 dropout_5 (Dropout)         (None, 128)               0         
                                                                 
 dense_8 (Dense)             (None, 1)                 129       
                                                                 
=================================================================
Total params: 12,672
Trainable params: 12,545
Non-trainable params: 127
_________________________________________________________________


features_txt: all_features_z_mass.txt 
fields_list: ['W02', 'W03', 'W04'] 
z_filtered: False 
min_n500: None 
max_n500: None 
…
