Model: "sequential"
_________________________________________________________________
 Layer (type)                Output Shape              Param #   
=================================================================
 normalization (Normalizatio  (None, 67)               135       
 n)                                                              
                                                                 
 dense (Dense)               (None, 64)                4352      
                                                                 
 dropout (Dropout)           (None, 64)                0         
                                                                 
 dense_1 (Dense)             (None, 128)               8320      
                                                                 
 dropout_1 (Dropout)         (None, 128)               0         
                                                                 
 dense_2 (Dense)             (None, 1)                 129       
                                                                 
=================================================================
Total params: 12,936
Trainable params: 12,801
Non-trainable params: 135
_________________________________________________________________


features_txt: all_features_sigma_5.txt 
fields_list: ['W02', 'W03', 'W04'] 
z_filtered: False 
min_n500: None 
max_n500: None 
…
