Model: "sequential_2"
_________________________________________________________________
 Layer (type)                Output Shape              Param #   
=================================================================
 normalization_2 (Normalizat  (None, 62)               125       
 ion)                                                            
                                                                 
 dense_6 (Dense)             (None, 64)                4032      
                                                                 
 dropout_4 (Dropout)         (None, 64)                0         
                                                                 
 dense_7 (Dense)             (None, 128)               8320      
                                                                 
 dropout_5 (Dropout)         (None, 128)               0         
                                                                 
 dense_8 (Dense)             (None, 1)                 129       
                                                                 
=================================================================
Total params: 12,606
Trainable params: 12,481
Non-trainable params: 125
_________________________________________________________________


features_txt: all_features_bcg.txt 
fields_list: ['W01', 'W02'] 
z_filtered: False 
min_n500: None 
max_n500: None 
min_z: None 
…
