Model: "sequential_1"
_________________________________________________________________
 Layer (type)                Output Shape              Param #   
=================================================================
 normalization_1 (Normalizat  (None, 59)               119       
 ion)                                                            
                                                                 
 dense_3 (Dense)             (None, 64)                3840      
                                                                 
 dropout_2 (Dropout)         (None, 64)                0         
                                                                 
 dense_4 (Dense)             (None, 128)               8320      
                                                                 
 dropout_3 (Dropout)         (None, 128)               0         
                                                                 
 dense_5 (Dense)             (None, 1)                 129       
                                                                 
=================================================================
Total params: 12,408
Trainable params: 12,289
Non-trainable params: 119
_________________________________________________________________


features_txt: features1.txt 
fields_list: ['W01', 'W02'] 
z_filtered: False 
min_n500: None 
max_n500: None 
min_z: None 
…
