Model: "sequential"
_________________________________________________________________
 Layer (type)                Output Shape              Param #   
=================================================================
 normalization (Normalizatio  (None, 59)               119       
 n)                                                              
                                                                 
 dense (Dense)               (None, 64)                3840      
                                                                 
 dropout (Dropout)           (None, 64)                0         
                                                                 
 dense_1 (Dense)             (None, 64)                4160      
                                                                 
 dropout_1 (Dropout)         (None, 64)                0         
                                                                 
 dense_2 (Dense)             (None, 128)               8320      
                                                                 
 dropout_2 (Dropout)         (None, 128)               0         
                                                                 
 dense_3 (Dense)             (None, 1)                 129       
                                                                 
=================================================================
Total params: 16,568
Trainable params: 16,449
Non-trainable params: 119
_________________________________________________________________


model_name: 1-model-m-dropout_max-i-21 
model_exists: False 
fields_list: ['W01', 'W02', 'W03', 'W04'] 
random_state: 42 
…
