Model: "sequential_1"
_________________________________________________________________
 Layer (type)                Output Shape              Param #   
=================================================================
 normalization_1 (Normalizat  (None, 61)               123       
 ion)                                                            
                                                                 
 dense_3 (Dense)             (None, 64)                3968      
                                                                 
 dropout_2 (Dropout)         (None, 64)                0         
                                                                 
 dense_4 (Dense)             (None, 128)               8320      
                                                                 
 dropout_3 (Dropout)         (None, 128)               0         
                                                                 
 dense_5 (Dense)             (None, 1)                 129       
                                                                 
=================================================================
Total params: 12,540
Trainable params: 12,417
Non-trainable params: 123
_________________________________________________________________


features_txt: all_features.txt 
fields_list: ['W01', 'W02'] 
z_filtered: True 
min_n500: None 
max_n500: None 
min_z: None 
…
