Model: "sequential_7"
_________________________________________________________________
 Layer (type)                Output Shape              Param #   
=================================================================
 normalization_7 (Normalizat  (None, 61)               123       
 ion)                                                            
                                                                 
 dense_21 (Dense)            (None, 64)                3968      
                                                                 
 dropout_14 (Dropout)        (None, 64)                0         
                                                                 
 dense_22 (Dense)            (None, 128)               8320      
                                                                 
 dropout_15 (Dropout)        (None, 128)               0         
                                                                 
 dense_23 (Dense)            (None, 1)                 129       
                                                                 
=================================================================
Total params: 12,540
Trainable params: 12,417
Non-trainable params: 123
_________________________________________________________________


features_txt: all_features.txt 
fields_list: ['W01', 'W02', 'W03', 'W04'] 
z_filtered: False 
min_n500: None 
max_n500: None 
…
