Model: "sequential_9"
_________________________________________________________________
 Layer (type)                Output Shape              Param #   
=================================================================
 normalization_9 (Normalizat  (None, 61)               123       
 ion)                                                            
                                                                 
 dense_27 (Dense)            (None, 64)                3968      
                                                                 
 dropout_18 (Dropout)        (None, 64)                0         
                                                                 
 dense_28 (Dense)            (None, 128)               8320      
                                                                 
 dropout_19 (Dropout)        (None, 128)               0         
                                                                 
 dense_29 (Dense)            (None, 1)                 129       
                                                                 
=================================================================
Total params: 12,540
Trainable params: 12,417
Non-trainable params: 123
_________________________________________________________________


features_txt: all_features.txt 
fields_list: ['W01', 'W02', 'W03', 'W04'] 
z_filtered: False 
min_n500: None 
max_n500: None 
…
