Model: "sequential_9"
_________________________________________________________________
 Layer (type)                Output Shape              Param #   
=================================================================
 normalization_9 (Normalizat  (None, 61)               123       
 ion)                                                            
                                                                 
 dense_32 (Dense)            (None, 64)                3968      
                                                                 
 dropout_18 (Dropout)        (None, 64)                0         
                                                                 
 dense_33 (Dense)            (None, 64)                4160      
                                                                 
 dropout_19 (Dropout)        (None, 64)                0         
                                                                 
 dense_34 (Dense)            (None, 1)                 65        
                                                                 
=================================================================
Total params: 8,316
Trainable params: 8,193
Non-trainable params: 123
_________________________________________________________________


features_txt: all_features.txt 
fields_list: ['W01', 'W02', 'W03', 'W04'] 
z_filtered: False 
min_n500: None 
max_n500: None 
…
