Model: "sequential"
_________________________________________________________________
 Layer (type)                Output Shape              Param #   
=================================================================
 normalization (Normalizatio  (None, 62)               125       
 n)                                                              
                                                                 
 dense (Dense)               (None, 512)               32256     
                                                                 
 dropout (Dropout)           (None, 512)               0         
                                                                 
 dense_1 (Dense)             (None, 512)               262656    
                                                                 
 dropout_1 (Dropout)         (None, 512)               0         
                                                                 
 dense_2 (Dense)             (None, 1)                 513       
                                                                 
=================================================================
Total params: 295,550
Trainable params: 295,425
Non-trainable params: 125
_________________________________________________________________


features_txt: all_features_bcg.txt 
fields_list: ['W02', 'W03', 'W04', 'W05', 'W06', 'W07'] 
z_filtered: False 
min_n500: 60 
…
