Model: "sequential"
_________________________________________________________________
 Layer (type)                Output Shape              Param #   
=================================================================
 normalization (Normalizatio  (None, 61)               123       
 n)                                                              
                                                                 
 dense (Dense)               (None, 64)                3968      
                                                                 
 dense_1 (Dense)             (None, 128)               8320      
                                                                 
 dense_2 (Dense)             (None, 128)               16512     
                                                                 
 dense_3 (Dense)             (None, 256)               33024     
                                                                 
 dense_4 (Dense)             (None, 1)                 257       
                                                                 
=================================================================
Total params: 62,204
Trainable params: 62,081
Non-trainable params: 123
_________________________________________________________________


features_txt: all_features.txt 
fields_list: ['W01', 'W02', 'W03', 'W04'] 
z_filtered: False 
min_n500: None 
max_n500: None 
…
