Model: "sequential_3"
_________________________________________________________________
 Layer (type)                Output Shape              Param #   
=================================================================
 normalization_3 (Normalizat  (None, 61)               123       
 ion)                                                            
                                                                 
 dense_12 (Dense)            (None, 64)                3968      
                                                                 
 dropout (Dropout)           (None, 64)                0         
                                                                 
 dense_13 (Dense)            (None, 128)               8320      
                                                                 
 dropout_1 (Dropout)         (None, 128)               0         
                                                                 
 dense_14 (Dense)            (None, 128)               16512     
                                                                 
 dropout_2 (Dropout)         (None, 128)               0         
                                                                 
 dense_15 (Dense)            (None, 256)               33024     
                                                                 
 dropout_3 (Dropout)         (None, 256)               0         
                                                                 
 dense_16 (Dense)            (None, 1)                 257       
                                                                 
=================================================================
Total params: 62,204
Trainable params: 62,081
Non-trainable params: 123
_________________________________________________________________


features_txt: all_features.txt 
fields_list: ['W01', 'W02', 'W03', 'W04'] 
z_filtered: False 
min_n500: None 
max_n500: None 
…
