Model: "sequential_6"
_________________________________________________________________
 Layer (type)                Output Shape              Param #   
=================================================================
 normalization_6 (Normalizat  (None, 61)               123       
 ion)                                                            
                                                                 
 dense_24 (Dense)            (None, 64)                3968      
                                                                 
 gaussian_dropout (GaussianD  (None, 64)               0         
 ropout)                                                         
                                                                 
 dense_25 (Dense)            (None, 128)               8320      
                                                                 
 gaussian_dropout_1 (Gaussia  (None, 128)              0         
 nDropout)                                                       
                                                                 
 dense_26 (Dense)            (None, 128)               16512     
                                                                 
 gaussian_dropout_2 (Gaussia  (None, 128)              0         
 nDropout)                                                       
                                                                 
 dense_27 (Dense)            (None, 256)               33024     
                                                                 
 gaussian_dropout_3 (Gaussia  (None, 256)              0         
 nDropout)                                                       
                                                                 
 dense_28 (Dense)            (None, 1)                 257       
                                                                 
=================================================================
Total params: 62,204
Trainable params: 62,081
Non-trainable params: 123
_________________________________________________________________


features_txt: all_features.txt 
fields_list: ['W01', 'W02', 'W03', 'W04'] 
z_filtered: False 
min_n500: None 
max_n500: None 
…
