Model: "sequential_1"
_________________________________________________________________
 Layer (type)                Output Shape              Param #   
=================================================================
 normalization_1 (Normalizat  (None, 61)               123       
 ion)                                                            
                                                                 
 dense_5 (Dense)             (None, 64)                3968      
                                                                 
 dense_6 (Dense)             (None, 64)                4160      
                                                                 
 dense_7 (Dense)             (None, 128)               8320      
                                                                 
 dense_8 (Dense)             (None, 1)                 129       
                                                                 
=================================================================
Total params: 16,700
Trainable params: 16,577
Non-trainable params: 123
_________________________________________________________________


features_txt: all_features.txt 
fields_list: ['W01', 'W02', 'W03', 'W04'] 
z_filtered: False 
min_n500: None 
max_n500: None 
…
