Model: "sequential_7"
_________________________________________________________________
 Layer (type)                Output Shape              Param #   
=================================================================
 normalization_7 (Normalizat  (None, 61)               123       
 ion)                                                            
                                                                 
 dense_29 (Dense)            (None, 64)                3968      
                                                                 
 gaussian_dropout_4 (Gaussia  (None, 64)               0         
 nDropout)                                                       
                                                                 
 dense_30 (Dense)            (None, 64)                4160      
                                                                 
 gaussian_dropout_5 (Gaussia  (None, 64)               0         
 nDropout)                                                       
                                                                 
 dense_31 (Dense)            (None, 128)               8320      
                                                                 
 gaussian_dropout_6 (Gaussia  (None, 128)              0         
 nDropout)                                                       
                                                                 
 dense_32 (Dense)            (None, 1)                 129       
                                                                 
=================================================================
Total params: 16,700
Trainable params: 16,577
Non-trainable params: 123
_________________________________________________________________


features_txt: all_features.txt 
fields_list: ['W01', 'W02', 'W03', 'W04'] 
z_filtered: False 
min_n500: None 
max_n500: None 
…
