Model: "sequential_8"
_________________________________________________________________
 Layer (type)                Output Shape              Param #   
=================================================================
 normalization_8 (Normalizat  (None, 61)               123       
 ion)                                                            
                                                                 
 dense_33 (Dense)            (None, 64)                3968      
                                                                 
 gaussian_dropout_7 (Gaussia  (None, 64)               0         
 nDropout)                                                       
                                                                 
 dense_34 (Dense)            (None, 64)                4160      
                                                                 
 gaussian_dropout_8 (Gaussia  (None, 64)               0         
 nDropout)                                                       
                                                                 
 dense_35 (Dense)            (None, 1)                 65        
                                                                 
=================================================================
Total params: 8,316
Trainable params: 8,193
Non-trainable params: 123
_________________________________________________________________


features_txt: all_features.txt 
fields_list: ['W01', 'W02', 'W03', 'W04'] 
z_filtered: False 
min_n500: None 
max_n500: None 
…
