Model: "sequential"
_________________________________________________________________
 Layer (type)                Output Shape              Param #   
=================================================================
 normalization (Normalizatio  (None, 63)               127       
 n)                                                              
                                                                 
 dense (Dense)               (None, 64)                4096      
                                                                 
 dropout (Dropout)           (None, 64)                0         
                                                                 
 dense_1 (Dense)             (None, 64)                4160      
                                                                 
 dropout_1 (Dropout)         (None, 64)                0         
                                                                 
 dense_2 (Dense)             (None, 128)               8320      
                                                                 
 dropout_2 (Dropout)         (None, 128)               0         
                                                                 
 dense_3 (Dense)             (None, 1)                 129       
                                                                 
=================================================================
Total params: 16,832
Trainable params: 16,705
Non-trainable params: 127
_________________________________________________________________


features_txt: all_features_z_mass.txt 
model_name: 1-model-m-dropout_all-features-z-mass 
model_exists: False 
fields_list: ['W01', 'W02', 'W03', 'W04'] 
…
