Model: "sequential"
_________________________________________________________________
 Layer (type)                Output Shape              Param #   
=================================================================
 normalization (Normalizatio  (None, 80)               161       
 n)                                                              
                                                                 
 dense (Dense)               (None, 512)               41472     
                                                                 
 dropout (Dropout)           (None, 512)               0         
                                                                 
 dense_1 (Dense)             (None, 512)               262656    
                                                                 
 dropout_1 (Dropout)         (None, 512)               0         
                                                                 
 dense_2 (Dense)             (None, 1)                 513       
                                                                 
=================================================================
Total params: 304,802
Trainable params: 304,641
Non-trainable params: 161
_________________________________________________________________


features_txt: all_features_sigmas.txt 
fields_list: ['W02', 'W03', 'W04', 'W05', 'W06', 'W07'] 
z_filtered: False 
min_n500: 0 
…
