Model: "sequential"
_________________________________________________________________
 Layer (type)                Output Shape              Param #   
=================================================================
 normalization (Normalizatio  (None, 59)               119       
 n)                                                              
                                                                 
 dense (Dense)               (None, 64)                3840      
                                                                 
 dense_1 (Dense)             (None, 128)               8320      
                                                                 
 dense_2 (Dense)             (None, 128)               16512     
                                                                 
 dense_3 (Dense)             (None, 256)               33024     
                                                                 
 dense_4 (Dense)             (None, 1)                 257       
                                                                 
=================================================================
Total params: 62,072
Trainable params: 61,953
Non-trainable params: 119
_________________________________________________________________


Optimizer: <keras.optimizers.optimizer_v2.adam.Adam object at 0x0000017B33C3E9B0> 
Loss function: <keras.losses.BinaryCrossentropy object at 0x0000017B3ADE9000> 
…
