Model: "sequential"
_________________________________________________________________
 Layer (type)                Output Shape              Param #   
=================================================================
 normalization (Normalizatio  (None, 59)               119       
 n)                                                              
                                                                 
 dense (Dense)               (None, 40)                2400      
                                                                 
 gaussian_dropout (GaussianD  (None, 40)               0         
 ropout)                                                         
                                                                 
 dense_1 (Dense)             (None, 20)                820       
                                                                 
 gaussian_dropout_1 (Gaussia  (None, 20)               0         
 nDropout)                                                       
                                                                 
 dense_2 (Dense)             (None, 1)                 21        
                                                                 
=================================================================
Total params: 3,360
Trainable params: 3,241
Non-trainable params: 119
_________________________________________________________________


Optimizer: <keras.optimizers.optimizer_v2.adam.Adam object at 0x0000027B0D4EC7C0> 
Loss function: <keras.losses.BinaryCrossentropy object at 0x0000027B0D4EFCD0> 
…
