Model: "sequential"
_________________________________________________________________
 Layer (type)                Output Shape              Param #   
=================================================================
 normalization (Normalizatio  (None, 59)               119       
 n)                                                              
                                                                 
 dense (Dense)               (None, 64)                3840      
                                                                 
 gaussian_dropout (GaussianD  (None, 64)               0         
 ropout)                                                         
                                                                 
 dense_1 (Dense)             (None, 128)               8320      
                                                                 
 gaussian_dropout_1 (Gaussia  (None, 128)              0         
 nDropout)                                                       
                                                                 
 dense_2 (Dense)             (None, 128)               16512     
                                                                 
 gaussian_dropout_2 (Gaussia  (None, 128)              0         
 nDropout)                                                       
                                                                 
 dense_3 (Dense)             (None, 256)               33024     
                                                                 
 gaussian_dropout_3 (Gaussia  (None, 256)              0         
 nDropout)                                                       
                                                                 
 dense_4 (Dense)             (None, 1)                 257       
                                                                 
=================================================================
Total params: 62,072
Trainable params: 61,953
Non-trainable params: 119
_________________________________________________________________


Optimizer: <keras.optimizers.optimizer_v2.adam.Adam object at 0x000001FE355CFB50> 
Loss function: <keras.losses.BinaryCrossentropy object at 0x000001FE3A543370> 
…
