Model: "sequential"
_________________________________________________________________
 Layer (type)                Output Shape              Param #   
=================================================================
 normalization (Normalizatio  (None, 59)               119       
 n)                                                              
                                                                 
 dense (Dense)               (None, 40)                2400      
                                                                 
 dropout (Dropout)           (None, 40)                0         
                                                                 
 dense_1 (Dense)             (None, 20)                820       
                                                                 
 dropout_1 (Dropout)         (None, 20)                0         
                                                                 
 dense_2 (Dense)             (None, 1)                 21        
                                                                 
=================================================================
Total params: 3,360
Trainable params: 3,241
Non-trainable params: 119
_________________________________________________________________


Optimizer: <keras.optimizers.optimizer_experimental.adamw.AdamW object at 0x00000259A6733A90> 
Loss function: <keras.losses.BinaryCrossentropy object at 0x00000259A67659F0> 
…
