Model: "sequential"
_________________________________________________________________
 Layer (type)                Output Shape              Param #   
=================================================================
 normalization (Normalizatio  (None, 59)               119       
 n)                                                              
                                                                 
 dense (Dense)               (None, 64)                3840      
                                                                 
 dense_1 (Dense)             (None, 128)               8320      
                                                                 
 dropout (Dropout)           (None, 128)               0         
                                                                 
 dense_2 (Dense)             (None, 128)               16512     
                                                                 
 dropout_1 (Dropout)         (None, 128)               0         
                                                                 
 dense_3 (Dense)             (None, 256)               33024     
                                                                 
 dropout_2 (Dropout)         (None, 256)               0         
                                                                 
 dense_4 (Dense)             (None, 1)                 257       
                                                                 
=================================================================
Total params: 62,072
Trainable params: 61,953
Non-trainable params: 119
_________________________________________________________________


Optimizer: <keras.optimizers.optimizer_experimental.adamw.AdamW object at 0x000002421C1931F0> 
Loss function: <keras.losses.BinaryCrossentropy object at 0x000002421C1B6F50> 
…
