Model: "sequential"
_________________________________________________________________
 Layer (type)                Output Shape              Param #   
=================================================================
 normalization (Normalizatio  (None, 59)               119       
 n)                                                              
                                                                 
 dense (Dense)               (None, 64)                3840      
                                                                 
 gaussian_dropout (GaussianD  (None, 64)               0         
 ropout)                                                         
                                                                 
 dense_1 (Dense)             (None, 64)                4160      
                                                                 
 gaussian_dropout_1 (Gaussia  (None, 64)               0         
 nDropout)                                                       
                                                                 
 dense_2 (Dense)             (None, 128)               8320      
                                                                 
 gaussian_dropout_2 (Gaussia  (None, 128)              0         
 nDropout)                                                       
                                                                 
 dense_3 (Dense)             (None, 1)                 129       
                                                                 
=================================================================
Total params: 16,568
Trainable params: 16,449
Non-trainable params: 119
_________________________________________________________________


Optimizer: <keras.optimizers.optimizer_experimental.adamw.AdamW object at 0x000001A1CA2CEDA0> 
Loss function: <keras.losses.BinaryCrossentropy object at 0x000001A1CA2E5C30> 
…
