Model: "sequential_3"
_________________________________________________________________
 Layer (type)                Output Shape              Param #   
=================================================================
 normalization_3 (Normalizat  (None, 61)               123       
 ion)                                                            
                                                                 
 dense_7 (Dense)             (None, 64)                3968      
                                                                 
 dropout (Dropout)           (None, 64)                0         
                                                                 
 dense_8 (Dense)             (None, 64)                4160      
                                                                 
 dropout_1 (Dropout)         (None, 64)                0         
                                                                 
 dense_9 (Dense)             (None, 128)               8320      
                                                                 
 dropout_2 (Dropout)         (None, 128)               0         
                                                                 
 dense_10 (Dense)            (None, 1)                 129       
                                                                 
=================================================================
Total params: 16,700
Trainable params: 16,577
Non-trainable params: 123
_________________________________________________________________


features_txt: all_features.txt 
fields_list: ['W01', 'W02', 'W03', 'W04'] 
z_filtered: False 
min_n500: None 
max_n500: None 
…
