Model: "sequential_1"
_________________________________________________________________
 Layer (type)                Output Shape              Param #   
=================================================================
 normalization_1 (Normalizat  (None, 66)               133       
 ion)                                                            
                                                                 
 dense_3 (Dense)             (None, 512)               34304     
                                                                 
 dropout_2 (Dropout)         (None, 512)               0         
                                                                 
 dense_4 (Dense)             (None, 512)               262656    
                                                                 
 dropout_3 (Dropout)         (None, 512)               0         
                                                                 
 dense_5 (Dense)             (None, 1)                 513       
                                                                 
=================================================================
Total params: 297,606
Trainable params: 297,473
Non-trainable params: 133
_________________________________________________________________


features_txt: all_features_abs_mags.txt 
fields_list: ['W02', 'W03', 'W04', 'W05', 'W06', 'W07'] 
z_filtered: False 
min_n500: None 
…
