Model: "sequential_2"
_________________________________________________________________
 Layer (type)                Output Shape              Param #   
=================================================================
 normalization_2 (Normalizat  (None, 67)               135       
 ion)                                                            
                                                                 
 dense_6 (Dense)             (None, 512)               34816     
                                                                 
 dropout_4 (Dropout)         (None, 512)               0         
                                                                 
 dense_7 (Dense)             (None, 512)               262656    
                                                                 
 dropout_5 (Dropout)         (None, 512)               0         
                                                                 
 dense_8 (Dense)             (None, 1)                 513       
                                                                 
=================================================================
Total params: 298,120
Trainable params: 297,985
Non-trainable params: 135
_________________________________________________________________


features_txt: all_features_sigma_5.txt 
fields_list: ['W02', 'W03', 'W04', 'W05', 'W06', 'W07'] 
z_filtered: False 
min_n500: None 
…
