Model: "sequential_4"
_________________________________________________________________
 Layer (type)                Output Shape              Param #   
=================================================================
 normalization_4 (Normalizat  (None, 61)               123       
 ion)                                                            
                                                                 
 dense_12 (Dense)            (None, 64)                3968      
                                                                 
 dropout_4 (Dropout)         (None, 64)                0         
                                                                 
 dense_13 (Dense)            (None, 128)               8320      
                                                                 
 dense_14 (Dense)            (None, 1)                 129       
                                                                 
=================================================================
Total params: 12,540
Trainable params: 12,417
Non-trainable params: 123
_________________________________________________________________


features_txt: all_features.txt 
fields_list: ['W01', 'W02', 'W03', 'W04'] 
z_filtered: False 
min_n500: None 
max_n500: None 
…
